…
ssentropy', optimizer='adam', metrics=['acc'])model.fit(x_train, y_train, batch_size=512, epochs=20, verbose=1, validation_data=(x_test, y_test)) 运行结果如下： 12345678910111213141516171819202122232425262728293031323334353637383940414243444546474849505152535455565758596061626364656667686970(25000,)[1, 14, 22, 16, 43](25000,)1(25000, 20)[ 65 16 38 2 88 12 16 283 5 16 2 113 103 32 15 16 2 19 178 32](25000, 2)[0. 1.]_________________________________________________________________Layer (type) Output Shape Param # =================================================================embedding_33 (Embedding) (None, 20, 8) 8000 _________________________________________________________________lstm_27 (LSTM) (None, 20, 256) 271360 _________________________________________________________________dropout_5 (Dropout) (None, 20, 256) 0 _________________________________________________________________lstm_28 (LSTM) (None, 256) 525312 _________________________________________________________________dropout_6 (Dropout) (None, 256) 0 _________________________________________________________________dense_27 (Dense) (None, 2) 514 =================================================================Total params: 805,186Trainable params: 805,186Non-trainable params: 0_________________________________________________________________NoneTrain on 25000 samples, validate on 25000 samplesEpoch 1/2025000/25000 [==============================] - 47s 2ms/step - loss: 0.6618 - acc: 0.5817 - val_loss: 0.5914 - val_acc: 0.6820Epoch 2/2025
…
ropy', optimizer='adam', metrics=['acc'])model.fit(x_train, y_train, batch_size=512, epochs=20, verbose=1, validation_data=(x_test, y_test)) 结果如下： 1234567891011121314151617181920212223242526272829303132333435363738394041424344454647484950515253545556575859606162636465666768697071727374(25000,)[1, 14, 22, 16, 43](25000,)1(25000, 20)[ 65 16 38 2 88 12 16 283 5 16 2 113 103 32 15 16 2 19 178 32](25000, 2)[0. 1.]_________________________________________________________________Layer (type) Output Shape Param # =================================================================embedding_1 (Embedding) (None, 20, 8) 8000 _________________________________________________________________spatial_dropout1d_1 (Spatial (None, 20, 8) 0 _________________________________________________________________bidirectional_1 (Bidirection (None, 200) 87200 _________________________________________________________________dense_1 (Dense) (None, 1024) 205824 _________________________________________________________________dropout_1 (Dropout) (None, 1024) 0 _________________________________________________________________dense_2 (Dense) (None, 1024) 1049600 _________________________________________________________________dropout_2 (Dropout) (None, 1024) 0 _________________________________________________________________dense_3 (Dense) (None, 2) 2050 =================================================================Total params: 1,352,674Trainable params: 1,352,674Non-trainable params: 0_________________________________________________________________NoneTrain on 25000 samples, validate on 25000 samplesEpoch 1/2025000/25000 [==============================] - 22s 884us/step - loss: 0.6930 - acc: 0.5094 - val_loss: 0.6887 - val_acc: 0.5946Epoch 
…
